…
[2026-06-07 12:40:09,427][httpx][INFO] - HTTP Request: GET https://huggingface.co/api/models/gpt2/tree/main/additional_chat_templates?recursive=false&expand=false "HTTP/1.1 307 Temporary Redirect"
[2026-06-07 12:40:09,689][httpx][INFO] - HTTP Request: GET https://huggingface.co/api/models/openai-community/gpt2/tree/main/additional_chat_templates?recursive=false&expand=false "HTTP/1.1 404 Not Found"
[2026-06-07 12:40:09,935][httpx][INFO] - HTTP Request: GET https://huggingface.co/api/models/gpt2/tree/main?recursive=true&expand=false "HTTP/1.1 307 Temporary Redirect"
[2026-06-07 12:40:10,182][httpx][INFO] - HTTP Request: GET https://huggingface.co/api/models/openai-community/gpt2/tree/main?recursive=true&expand=false "HTTP/1.1 200 OK"
Model:
Transformer(
  (token_embedding_table): Embedding(50257, 512)
  (blocks): Sequential(
    (0): Block(
      (attn): MultiHeadAttention(
        (key): Linear(in_features=512, out_features=512, bias=False)
        (query): Linear(in_features=512, out_features=512, bias=False)
        (value): Linear(in_features=512, out_features=512, bias=False)
        (proj): Linear(in_features=512, out_features=512, bias=True)
        (dropout): Dropout(p=0.1, inplace=False)
        (local_conv): Conv1d(512, 512, kernel_size=(511,), stride=(1,), padding=(255,), groups=512)
      )
      (ffw): FeedForward(
        (network): Sequential(
          (0): Linear(in_features=512, out_features=2048, bias=True)
          (1): ReLU()
          (2): Linear(in_features=2048, out_features=512, bias=True)
          (3): Dropout(p=0.1, inplace=False)
        )
      )
      (l1): LayerNorm((512,), eps=1e-05, elementwise_affine=True, bias=True)
      (l2): LayerNorm((512,), eps=1e-05, elementwise_affine=True, bias=True)
    )
    (1): Block(
      (attn): MultiHeadAttention(
        (key): Linear(in_features=512, out_features=512, bias=False)
        (query): Linear(in_features=512, out_features=512, bias=False)
        (value): Linear(in_features=512, out_features=512, bias=False)
        (proj): Linear(in_features=512, out_features=512, bias=True)
        (dropout): Dropout(p=0.1, inplace=False)
        (local_conv): Conv1d(512, 512, kernel_size=(511,), stride=(1,), padding=(255,), groups=512)
      )
      (ffw): FeedForward(
        (network): Sequential(
          (0): Linear(in_features=512, out_features=2048, bias=True)
          (1): ReLU()
          (2): Linear(in_features=2048, out_features=512, bias=True)
          (3): Dropout(p=0.1, inplace=False)
        )
      )
      (l1): LayerNorm((512,), eps=1e-05, elementwise_affine=True, bias=True)
      (l2): LayerNorm((512,), eps=1e-05, elementwise_affine=True, bias=True)
    )
    (2): Block(
      (attn): MultiHeadAttention(
        (key): Linear(in_features=512, out_features=512, bias=False)
        (query): Linear(in_features=512, out_features=512, bias=False)
        (value): Linear(in_features=512, out_features=512, bias=False)
        (proj): Linear(in_features=512, out_features=512, bias=True)
        (dropout): Dropout(p=0.1, inplace=False)
        (local_conv): Conv1d(512, 512, kernel_size=(511,), stride=(1,), padding=(255,), groups=512)
      )
      (ffw): FeedForward(
        (network): Sequential(
          (0): Linear(in_features=512, out_features=2048, bias=True)
          (1): ReLU()
          (2): Linear(in_features=2048, out_features=512, bias=True)
          (3): Dropout(p=0.1, inplace=False)
        )
      )
      (l1): LayerNorm((512,), eps=1e-05, elementwise_affine=True, bias=True)
      (l2): LayerNorm((512,), eps=1e-05, elementwise_affine=True, bias=True)
    )
    (3): Block(
      (attn): MultiHeadAttention(
        (key): Linear(in_features=512, out_features=512, bias=False)
        (query): Linear(in_features=512, out_features=512, bias=False)
        (value): Linear(in_features=512, out_features=512, bias=False)
        (proj): Linear(in_features=512, out_features=512, bias=True)
        (dropout): Dropout(p=0.1, inplace=False)
        (local_conv): Conv1d(512, 512, kernel_size=(511,), stride=(1,), padding=(255,), groups=512)
      )
      (ffw): FeedForward(
        (network): Sequential(
          (0): Linear(in_features=512, out_features=2048, bias=True)
          (1): ReLU()
          (2): Linear(in_features=2048, out_features=512, bias=True)
          (3): Dropout(p=0.1, inplace=False)
        )
      )
      (l1): LayerNorm((512,), eps=1e-05, elementwise_affine=True, bias=True)
      (l2): LayerNorm((512,), eps=1e-05, elementwise_affine=True, bias=True)
    )
  )
  (ln_f): LayerNorm((512,), eps=1e-05, elementwise_affine=True, bias=True)
  (lf): Linear(in_features=512, out_features=50257, bias=True)
)
[2026-06-07 12:40:12,149][httpx][INFO] - HTTP Request: HEAD https://huggingface.co/datasets/Salesforce/wikitext/resolve/main/README.md "HTTP/1.1 307 Temporary Redirect"
[2026-06-07 12:40:12,194][httpx][INFO] - HTTP Request: HEAD https://huggingface.co/api/resolve-cache/datasets/Salesforce/wikitext/b08601e04326c79dfdd32d625aee71d232d685c3/README.md "HTTP/1.1 200 OK"
…
