…
[2026-06-07 12:56:30,038][httpx][INFO] - HTTP Request: GET https://huggingface.co/api/models/gpt2/tree/main/additional_chat_templates?recursive=false&expand=false "HTTP/1.1 307 Temporary Redirect"
[2026-06-07 12:56:30,288][httpx][INFO] - HTTP Request: GET https://huggingface.co/api/models/openai-community/gpt2/tree/main/additional_chat_templates?recursive=false&expand=false "HTTP/1.1 404 Not Found"
[2026-06-07 12:56:30,531][httpx][INFO] - HTTP Request: GET https://huggingface.co/api/models/gpt2/tree/main?recursive=true&expand=false "HTTP/1.1 307 Temporary Redirect"
[2026-06-07 12:56:30,785][httpx][INFO] - HTTP Request: GET https://huggingface.co/api/models/openai-community/gpt2/tree/main?recursive=true&expand=false "HTTP/1.1 200 OK"
Model:
Transformer(
  (token_embedding_table): Embedding(50257, 512)
  (blocks): Sequential(
    (0): Block(
      (attn): MultiHeadAttention(
        (key): Linear(in_features=512, out_features=512, bias=False)
        (query): Linear(in_features=512, out_features=512, bias=False)
        (value): Linear(in_features=512, out_features=512, bias=False)
        (proj): Linear(in_features=512, out_features=512, bias=True)
        (dropout): Dropout(p=0.1, inplace=False)
        (local_conv): Conv1d(512, 512, kernel_size=(512,), stride=(1,), padding=(256,))
      )
      (ffw): FeedForward(
        (network): Sequential(
          (0): Linear(in_features=512, out_features=2048, bias=True)
          (1): ReLU()
          (2): Linear(in_features=2048, out_features=512, bias=True)
          (3): Dropout(p=0.1, inplace=False)
        )
      )
      (l1): LayerNorm((512,), eps=1e-05, elementwise_affine=True, bias=True)
      (l2): LayerNorm((512,), eps=1e-05, elementwise_affine=True, bias=True)
    )
    (1): Block(
      (attn): MultiHeadAttention(
        (key): Linear(in_features=512, out_features=512, bias=False)
        (query): Linear(in_features=512, out_features=512, bias=False)
        (value): Linear(in_features=512, out_features=512, bias=False)
        (proj): Linear(in_features=512, out_features=512, bias=True)
        (dropout): Dropout(p=0.1, inplace=False)
        (local_conv): Conv1d(512, 512, kernel_size=(512,), stride=(1,), padding=(256,))
      )
      (ffw): FeedForward(
        (network): Sequential(
          (0): Linear(in_features=512, out_features=2048, bias=True)
          (1): ReLU()
          (2): Linear(in_features=2048, out_features=512, bias=True)
          (3): Dropout(p=0.1, inplace=False)
        )
      )
      (l1): LayerNorm((512,), eps=1e-05, elementwise_affine=True, bias=True)
      (l2): LayerNorm((512,), eps=1e-05, elementwise_affine=True, bias=True)
    )
    (2): Block(
      (attn): MultiHeadAttention(
        (key): Linear(in_features=512, out_features=512, bias=False)
        (query): Linear(in_features=512, out_features=512, bias=False)
        (value): Linear(in_features=512, out_features=512, bias=False)
        (proj): Linear(in_features=512, out_features=512, bias=True)
        (dropout): Dropout(p=0.1, inplace=False)
        (local_conv): Conv1d(512, 512, kernel_size=(512,), stride=(1,), padding=(256,))
      )
      (ffw): FeedForward(
        (network): Sequential(
          (0): Linear(in_features=512, out_features=2048, bias=True)
          (1): ReLU()
          (2): Linear(in_features=2048, out_features=512, bias=True)
          (3): Dropout(p=0.1, inplace=False)
        )
      )
      (l1): LayerNorm((512,), eps=1e-05, elementwise_affine=True, bias=True)
      (l2): LayerNorm((512,), eps=1e-05, elementwise_affine=True, bias=True)
    )
    (3): Block(
      (attn): MultiHeadAttention(
        (key): Linear(in_features=512, out_features=512, bias=False)
        (query): Linear(in_features=512, out_features=512, bias=False)
        (value): Linear(in_features=512, out_features=512, bias=False)
        (proj): Linear(in_features=512, out_features=512, bias=True)
        (dropout): Dropout(p=0.1, inplace=False)
        (local_conv): Conv1d(512, 512, kernel_size=(512,), stride=(1,), padding=(256,))
      )
      (ffw): FeedForward(
        (network): Sequential(
          (0): Linear(in_features=512, out_features=2048, bias=True)
          (1): ReLU()
          (2): Linear(in_features=2048, out_features=512, bias=True)
          (3): Dropout(p=0.1, inplace=False)
        )
      )
      (l1): LayerNorm((512,), eps=1e-05, elementwise_affine=True, bias=True)
      (l2): LayerNorm((512,), eps=1e-05, elementwise_affine=True, bias=True)
    )
  )
  (ln_f): LayerNorm((512,), eps=1e-05, elementwise_affine=True, bias=True)
  (lf): Linear(in_features=512, out_features=50257, bias=True)
)
[2026-06-07 12:56:35,491][httpx][INFO] - HTTP Request: HEAD https://huggingface.co/datasets/Salesforce/wikitext/resolve/main/README.md "HTTP/1.1 307 Temporary Redirect"
Warning: You are sending unauthenticated requests to the HF Hub. Please set a HF_TOKEN to enable higher rate limits and faster downloads.
[2026-06-07 12:56:35,494][huggingface_hub.utils._http][WARNING] - Warning: You are sending unauthenticated requests to the HF Hub. Please set a HF_TOKEN to enable higher rate limits and faster downloads.
…
