…
[2026-06-06 18:11:31,381][httpx][INFO] - HTTP Request: GET https://huggingface.co/api/models/gpt2/tree/main/additional_chat_templates?recursive=false&expand=false "HTTP/1.1 307 Temporary Redirect"
[2026-06-06 18:11:31,689][httpx][INFO] - HTTP Request: GET https://huggingface.co/api/models/openai-community/gpt2/tree/main/additional_chat_templates?recursive=false&expand=false "HTTP/1.1 404 Not Found"
[2026-06-06 18:11:31,939][httpx][INFO] - HTTP Request: GET https://huggingface.co/api/models/gpt2/tree/main?recursive=true&expand=false "HTTP/1.1 307 Temporary Redirect"
[2026-06-06 18:11:32,200][httpx][INFO] - HTTP Request: GET https://huggingface.co/api/models/openai-community/gpt2/tree/main?recursive=true&expand=false "HTTP/1.1 200 OK"
Model:
Transformer(
  (token_embedding_table): Embedding(50257, 512)
  (position_embedding_table): Embedding(1024, 512)
  (blocks): Sequential(
    (0): Block(
      (attn): GroupedQueryAttention(
        (query): Linear(in_features=512, out_features=512, bias=False)
        (key): Linear(in_features=512, out_features=256, bias=False)
        (value): Linear(in_features=512, out_features=256, bias=False)
      )
      (ffw): FeedForward(
        (network): Sequential(
          (0): Linear(in_features=512, out_features=2048, bias=True)
          (1): ReLU()
          (2): Linear(in_features=2048, out_features=512, bias=True)
          (3): Dropout(p=0.1, inplace=False)
        )
      )
      (l1): LayerNorm((512,), eps=1e-05, elementwise_affine=True, bias=True)
      (l2): LayerNorm((512,), eps=1e-05, elementwise_affine=True, bias=True)
    )
    (1): Block(
      (attn): GroupedQueryAttention(
        (query): Linear(in_features=512, out_features=512, bias=False)
        (key): Linear(in_features=512, out_features=256, bias=False)
        (value): Linear(in_features=512, out_features=256, bias=False)
      )
      (ffw): FeedForward(
        (network): Sequential(
          (0): Linear(in_features=512, out_features=2048, bias=True)
          (1): ReLU()
          (2): Linear(in_features=2048, out_features=512, bias=True)
          (3): Dropout(p=0.1, inplace=False)
        )
      )
      (l1): LayerNorm((512,), eps=1e-05, elementwise_affine=True, bias=True)
      (l2): LayerNorm((512,), eps=1e-05, elementwise_affine=True, bias=True)
    )
    (2): Block(
      (attn): GroupedQueryAttention(
        (query): Linear(in_features=512, out_features=512, bias=False)
        (key): Linear(in_features=512, out_features=256, bias=False)
        (value): Linear(in_features=512, out_features=256, bias=False)
      )
      (ffw): FeedForward(
        (network): Sequential(
          (0): Linear(in_features=512, out_features=2048, bias=True)
          (1): ReLU()
          (2): Linear(in_features=2048, out_features=512, bias=True)
          (3): Dropout(p=0.1, inplace=False)
        )
      )
      (l1): LayerNorm((512,), eps=1e-05, elementwise_affine=True, bias=True)
      (l2): LayerNorm((512,), eps=1e-05, elementwise_affine=True, bias=True)
    )
    (3): Block(
      (attn): GroupedQueryAttention(
        (query): Linear(in_features=512, out_features=512, bias=False)
        (key): Linear(in_features=512, out_features=256, bias=False)
        (value): Linear(in_features=512, out_features=256, bias=False)
      )
      (ffw): FeedForward(
        (network): Sequential(
          (0): Linear(in_features=512, out_features=2048, bias=True)
          (1): ReLU()
          (2): Linear(in_features=2048, out_features=512, bias=True)
          (3): Dropout(p=0.1, inplace=False)
        )
      )
      (l1): LayerNorm((512,), eps=1e-05, elementwise_affine=True, bias=True)
      (l2): LayerNorm((512,), eps=1e-05, elementwise_affine=True, bias=True)
    )
  )
  (ln_f): LayerNorm((512,), eps=1e-05, elementwise_affine=True, bias=True)
  (lf): Linear(in_features=512, out_features=50257, bias=True)
)
[2026-06-06 18:11:35,579][httpx][INFO] - HTTP Request: HEAD https://huggingface.co/datasets/Salesforce/wikitext/resolve/main/README.md "HTTP/1.1 307 Temporary Redirect"
Warning: You are sending unauthenticated requests to the HF Hub. Please set a HF_TOKEN to enable higher rate limits and faster downloads.
[2026-06-06 18:11:35,581][huggingface_hub.utils._http][WARNING] - Warning: You are sending unauthenticated requests to the HF Hub. Please set a HF_TOKEN to enable higher rate limits and faster downloads.
…
